PelletGrabber/Assets/Models/Agent Controller.onnx (onnx, 75174 bytes, 6 tensors)

network_body._body_endoder.seq_layers.0.weight f4 [128, 1]
-0.5652909 -0.42236847 -1.7291867 -0.8661438 0.7332775 0.78055805 -0.31511125 -0.5498626
-2.718674 -0.4713317 2.392766 -0.76057166 -1.1341056 -1.967615 -0.83937156 -0.18031676
1.8441324 0.50449586 -1.1063365 -1.954793 -0.71308655 1.0120199 -0.16042392 0.1700359
0.99727553 -1.7330912 1.1445351 0.3439733 0.55101997 0.096612774 0.49289882 1.1526288
2.5992937 -0.3700159 0.86415386 -0.058730066 -0.54842633 -0.04614373 2.4189312 1.3332648
1.0856375 0.23695391 -0.41299433 -0.35604927 -0.2229895 0.32921186 -1.5204428 -1.9543235
-0.22800109 -0.16067544 0.8449093 1.7856349 -0.6572077 0.23641224 0.02412403 -0.5094353
-0.17548358 -2.4763904 -0.040643923 -0.5724484 0.5480403 0.5074569 1.1900597 0.6036698
0.062228516 -0.60896957 -1.008441 -1.8550935 0.74552435 -0.96498257 -0.8674876 0.25714785
-0.26540577 0.9179305 0.3479005 1.1114619 -0.5637732 -0.076009005 -1.1617097 1.8668858
0.19482477 -0.21896729 -2.0174713 -0.35038593 -0.18467548 1.385676 0.049098402 -0.1285728
-1.8934364 -0.32125753 -0.014640544 2.06322 0.21077223 0.29245144 -0.6152412 -0.60048014
0.4980704 -0.9286251 0.77508104 0.9017783 0.99005073 0.13262907 1.6507109 -0.32225102
1.6495758 0.21766414 1.1046429 -1.1703347 0.13896912 -0.4158144 -0.3221357 0.113790356
-1.4200234 0.4765273 1.0498165 -0.06375185 -0.68965024 2.1027117 0.22268577 1.2071961
-0.1908073 0.56615186 0.57243496 1.5357254 1.0846417 0.4070485 -0.7298788 -0.37297598
00000000: e8b6 10bf ae40 d8be fd55 ddbf 9abb 5dbf
00000010: 13b8 3b3f a7d2 473f 4356 a1be ccc3 0cbf
00000020: c1fe 2dc0 6352 f1be 1423 1940 d3b4 42bf
00000030: 5f2a 91bf cfda fbbf 0ee1 56bf f5a4 38be
00000040: 880c ec3f a426 013f 6f9c 8dbf a836 fabf
00000050: d78c 36bf de89 813f 2b46 24be e41d 2e3e
00000060: 734d 7f3f efd5 ddbf 2080 923f 451d b03e
00000070: a50f 0d3f ebdc c53d 3c5d fc3e 5789 933f
00000080: d45a 2640 b972 bdbe 3039 5d3f f08e 70bd
00000090: ab65 0cbf 3501 3dbd c5cf 1a40 6ca8 aa3f
000000a0: 2bf6 8a3f 0ca4 723e fe73 d3be 174c b6be
000000b0: 5c57 64be 758e a83e df9d c2bf 4627 fabf
000000c0: 1e79 69be 1a88 24be fa4b 583f af8f e43f
000000d0: c43e 28bf 0d16 723e c29f c53c 5a6a 02bf
000000e0: f8b1 33be 2e7d 1ec0 3e7a 26bd fa8b 12bf
000000f0: 5e4c 0c3f b2e8 013f e053 983f 1b8a 1a3f
00000100: 54e3 7e3d 6ee5 1bbf 9814 81bf b473 edbf
00000110: afda 3e3f 1909 77bf ab13 5ebf e2a8 833e
00000120: 44e3 87be 7efd 6a3f 0420 b23e 6244 8e3f
00000130: 7153 10bf 9caa 9bbd e7b2 94bf 1df6 ee3f
00000140: 2580 473e f638 60be 401e 01c0 c965 b3be
00000150: 921b 3dbe d55d b13f 681b 493d 97a8 03be
00000160: 205c f2bf de7b a4be e4de 6fbc cc0b 0440
00000170: add4 573e 32bc 953e 7380 1dbf 11b9 19bf
00000180: 1503 ff3e 60ba 6dbf b66b 463f f1da 663f
00000190: f773 7d3f eacf 073e 7f4a d33f 16fe a4be
000001a0: 4d25 d33f 59e3 5e3e f064 8d3f 87cd 95bf
000001b0: ec4d 0e3e a0e5 d4be f8ee a4be eb0a e93d
000001c0: 54c3 b5bf 63fb f33e 6360 863f 5490 82bd
000001d0: eb8c 30bf d492 0640 bd07 643e 6785 9a3f
000001e0: fd62 43be 54ef 103f 198b 123f a692 c43f
000001f0: 8ad5 8a3f a968 d03e 56d9 3abf b5f6 bebe

network_body._body_endoder.seq_layers.0.bias f4 [128]
-0.014263372 -0.00786841 0.007055842 -0.007952586 0.0017985469 0.012270557 0.009030977 -0.007960066
-0.005753388 0.019697174 0.009731728 -0.010412973 0.008580598 0.010325012 0.0091250995 0.011569882
-0.0036250446 0.01197807 -0.0107136415 0.008876961 -0.0134279 0.00519619 -0.01678491 -0.01284439
0.012836978 0.009111607 0.0027751117 -0.0038537227 -0.019535579 -0.007752286 -0.010432842 0.012516076
-0.01046824 -0.017884422 -0.01487693 -0.015652139 -0.0047812643 -0.015359619 0.014962753 0.009314605
0.01589123 -0.015334935 -0.01985627 0.016384516 -0.0050947373 -0.0049586724 0.0023628979 0.007902244
0.008046353 0.01492061 -0.024988683 -0.0051288935 -0.010387933 0.00480262 -0.013467558 -0.015571416
0.01738818 0.008294152 -0.017606258 -0.0045421063 -0.006276814 0.0082101915 -0.010353858 -0.019183673
-0.0023226426 0.014654394 0.0025601427 -0.0057622627 0.013610192 0.008747931 0.0044665136 -0.011072296
-0.014884086 0.006411672 -0.012757865 0.011334455 -0.016710734 -0.00068469514 -0.0035712656 0.008147333
0.014217281 0.008710944 0.010947461 -0.009219022 -0.0060852556 -0.015826073 0.009560942 0.014996793
-0.007729783 0.005041279 -0.011573937 -0.015817234 0.008860948 0.013203624 -0.00054571166 0.0100936815
-0.004516943 0.006373824 0.008724185 0.012130123 0.0074924016 -0.012785422 0.004497577 0.017190762
0.0019284582 -0.014050323 -0.013479639 0.010749254 0.011190434 0.021557271 -0.016296215 -0.013335636
0.010038096 0.005051018 0.008257251 -0.016630296 -0.008998873 -0.010258264 0.009651866 -0.0034466663
-0.011516005 -0.0087044025 0.0105084805 -0.012070198 0.006148622 0.005978485 -0.012636446 -0.009644982
00000000: ebb0 69bc 81ea 00bc b134 e73b 904b 02bc
00000010: 38bd eb3a 720a 493c aaf6 133c f06a 02bc
00000020: eb86 bcbb f85b a13c d371 1f3c 2d9b 2abc
00000030: a395 0c3c 3d2a 293c 7181 153c 9a8f 3d3c
00000040: 2892 6dbb ab3f 443c 4588 2fbc ac70 113c
00000050: b200 5cbc cd44 aa3b 8280 89bc 4771 52bc
00000060: 3052 523c da48 153c a6de 353b bd8e 7cbb
00000070: 1409 a0bc e306 febb 83ee 2abc 3a10 4d3c
00000080: fb82 2bbc 5a82 92bc 5ebe 73bc ea38 80bc
00000090: 27ac 9cbb e9a6 7bbc 5626 753c 499c 183c
000000a0: 532e 823c 613f 7bbc 9ea9 a2bc d238 863c
000000b0: c1f1 a6bb 5c7c a2bb d9da 1a3b 6a78 013c
000000c0: dad4 033c 9375 743c 11b5 ccbc 4710 a8bb
000000d0: 2632 2abc 4c5f 9d3b 08a7 5cbc 411f 7fbc
000000e0: a871 8e3c 32e4 073c 003b 90bc f3d5 94bb
000000f0: bbad cdbb 0a84 063c 3aa3 29bc 1427 9dbc
00000100: 7a37 18bb fc18 703c 11c8 273b 5dd1 bcbb
00000110: 48fd 5e3c 7b53 0f3c d55b 923b 9368 35bc
00000120: 62dc 73bc 0119 d23b 5d06 51bc 26b4 393c
00000130: f3e4 88bc 1d7d 33ba e50b 6abb 647c 053c
00000140: 99ef 683c 59b8 0e3c fb5c 333c 610b 17bc
00000150: d366 c7bb aea5 81bc 7fa5 1c3c 1cb5 753c
00000160: 1f4a fdbb 5031 a53b 9ca0 3dbc 2593 81bc
00000170: 822d 113c 0354 583c 170e 0fba f85f 253c
00000180: dd02 94bb 83db d03b e2ef 0e3c 6cbd 463c
00000190: d282 f53b f279 51bc 6960 933b a4d3 8c3c
000001a0: 52c4 fc3a 5333 66bc b4d9 5cbc a41d 303c
000001b0: 1558 373c e098 b03c a47f 85bc b67d 5abc
000001c0: d476 243c 0383 a53b 6c49 073c 423c 88bc
000001d0: 0270 13bc 4712 28bc dc22 1e3c 77e1 61bb
000001e0: a0ad 3cbc e99c 0ebc c32b 2c3c 14c2 45bc
000001f0: 617a c93b 2be7 c33b 1909 4fbc fd05 1ebc

network_body._body_endoder.seq_layers.2.weight f4 [128, 128]
0.054799125 0.032400813 -0.08203272 -0.18768468 -0.004364906 -0.13456294 -0.0016298224 -0.12761657
-0.026190568 -0.013008796 0.095562376 0.002408497 -0.082472496 0.158675 -0.012674244 -0.015555867
-0.0035577214 0.032790408 0.11761767 0.016033266 -0.0144406995 -0.04051422 0.049169388 -0.05380611
-0.004417893 -0.073006906 0.1637332 -0.22007449 0.08120851 -0.06001211 -0.01241761 -0.1315428
0.015579714 0.10498347 0.113405995 -0.024299165 -0.039554853 0.055014126 0.00086335925 -0.06836523
-0.07914082 -0.07514759 0.12770224 -0.034324173 -0.075909026 0.012574219 -0.14087518 0.03515189
-0.029623222 0.107670665 0.009045697 0.054712266 0.10569276 -0.035314135 -0.026182832 -0.047436498
-0.062704116 0.04396456 0.07499366 -0.070464306 -0.021559333 0.005226933 0.051916648 0.04876259
-0.005953903 0.1350521 -0.023215218 0.032974247 0.09844782 -0.11336417 0.115267426 -0.14892465
-0.02280208 0.03241191 -0.052870985 -0.05292822 0.047273483 -0.0870252 0.15973513 -0.09612479
-0.10274845 -0.09082818 -0.03252157 0.023073146 0.08624214 -0.034863777 0.0032061767 0.07650462
0.055578597 -0.08067595 -0.12295569 0.03186027 -0.23211835 0.015323818 0.170439 -0.020159071
0.049219005 0.023910407 0.07067433 0.008855102 -0.072906956 -0.0019615074 -0.01047343 0.07533587
0.08774881 -0.0015946948 -0.104274526 -0.15690777 -0.042379268 -0.07298326 0.008565461 0.035948116
0.1312853 0.15328127 -0.022299286 -0.24511757 -0.09671724 0.031359173 -0.04239183 0.06053516
-0.12764786 0.038335524 -0.037809394 0.12315153 0.13087608 -0.03266462 -0.02109454 0.1142188
-0.18697838 0.041579474 -0.0992142 -0.06963234 0.12342317 0.069074206 -0.09400909 0.024073306
-0.081844166 0.05834283 0.1067536 -0.06654025 -0.054758787 -0.13800389 0.028932735 0.05635249
-0.06435501 0.016622677 -0.042580783 0.043384418 -0.15275723 0.04072091 -0.017753892 0.037223913
0.011075344 -0.13385078 -0.052709572 0.09909609 -0.04001239 -0.050060414 0.07289503 0.04772153
0.007938961 0.04461605 0.04975751 -0.041980233 0.063328825 -0.014006774 0.052226424 0.03573154
-0.004258344 -0.013162904 0.122620255 0.008114392 0.01568402 0.06050087 0.029586254 -0.033518083
0.21647081 -0.01546556 -0.13270667 -0.01689885 -0.014804694 -0.002569241 -0.10691711 -0.0026251115
0.13205513 -0.026563011 0.061431635 -0.07034187 0.054681998 -0.19450985 0.049624402 0.020013887
-0.016703464 0.1783575 0.05147923 0.04859113 0.06680911 -0.02605376 0.034243528 0.030442063
-0.059498455 0.006068675 -0.09647475 -0.021063337 -0.089700595 0.01621772 0.008501985 -0.08858888
0.11648404 0.08604675 0.050008558 0.047996245 -0.10039131 0.00454749 -0.050081205 -0.0053188712
-0.033603292 -0.1777814 0.0354529 -0.10473804 -0.033203155 -0.12203298 0.052857615 0.070199035
-0.08832257 -0.12339372 -0.13145362 -0.061615072 0.11350901 -0.12711908 0.03634846 -0.08389607
-0.09859344 -0.08561583 -0.086141124 -0.14003746 0.060301255 0.20690826 -0.030948106 -0.021420253
-0.11257396 -0.12336756 0.10888766 -0.0608279 0.033965733 -0.037552603 0.0068761604 -0.044118807
-0.11395913 0.05804048 0.062139966 -0.06280847 0.124139115 0.044585466 -0.038976517 -0.16272196
00000000: 0c75 603d b7b6 043d c500 a8bd 6a30 40be
00000010: 7c07 8fbb deca 09be c49f d5ba ebad 02be
00000020: 9a8d d6bc d822 55bc 35b6 c33d e0d7 1d3b
00000030: 57e7 a8bd b37b 223e a2a7 4fbc 09de 7ebc
00000040: a928 69bb 3c4f 063d 88e1 f03d 3258 833c
00000050: af98 6cbc 3df2 25bd d765 493d cc63 5cbd
00000060: f9c3 90bb a584 95bd ada9 273e 355b 61be
00000070: a650 a63d 42cf 75bd 3b73 4bbc 28b3 06be
00000080: 0f42 7f3c 9301 d73d 6741 e83d 0b0f c7bc
00000090: 4504 22bd 7e56 613d 0f53 623a 1203 8cbd
000000a0: 9514 a2bd fbe6 99bd 60c4 023e 8197 0cbd
000000b0: 3176 9bbd 1904 4e3c 9541 10be 6efb 0f3d
000000c0: 66ac f2bc 7082 dc3d 6734 143c f819 603d
000000d0: 7275 d83d 8ea5 10bd 617d d6bc c64c 42bd
000000e0: 046b 80bd 2f14 343d 4796 993d 974f 90bd
000000f0: 339d b0bc b146 ab3b 8da6 543d 48bb 473d
00000100: f518 c3bb 194b 0a3e d72d bebc 0110 073d
00000110: 039f c93d 792b e8bd 5411 ec3d b47f 18be
00000120: 6dcb babc 5ac2 043d 3f8f 58bd 43cb 58bd
00000130: d7a1 413d 453a b2bd 9b91 233e 13dd c4bd
00000140: c86d d2bd 2004 babd 5635 05bd e503 bd3c
00000150: b89f b03d 52cd 0ebd b81e 523b 74ae 9c3d
00000160: 62a6 633d 6f39 a5bd 31d0 fbbd ea7f 023d
00000170: 6fb0 6dbe c010 7b3c 9087 2e3e a324 a5bc
00000180: de99 493d c2df c33c b4bd 903d fd14 113c
00000190: 3e50 95bd a28c 00bb c098 2bbc b149 9a3d
000001a0: a6b5 b33d 1405 d1ba e28d d5bd 6eac 20be
000001b0: e295 2dbd 3f78 95bd 2656 0c3c 553e 133d
000001c0: a76f 063e c4f5 1c3e feac b6bc 1a00 7bbe
000001d0: b013 c6bd 7a72 003d 0ea3 2dbd b7f3 773d
000001e0: 1fb6 02be b605 1d3d 06de 1abd df36 fc3d
000001f0: 6104 063e 56cb 05bd 75ce acbc 8ceb e93d
00000200: 4377 3fbe 3d4f 2a3d d130 cbbd 669b 8ebd
00000210: 49c5 fc3d c776 8d3d d687 c0bd 6235 c53c
00000220: ea9d a7bd e4f8 6e3d a2a1 da3d 4146 88bd
00000230: c04a 60bd e450 0dbe 5804 ed3c ded1 663d
00000240: 8fcc 83bd 482c 883c 3069 2ebd dcb3 313d
00000250: 646c 1cbe f8ca 263d 9c70 91bc 1a78 183d
00000260: 5c75 353c 2e10 09be fee5 57bd e4f2 ca3d
00000270: 08e4 23bd 260c 4dbd fd49 953d a777 433d
00000280: 6a12 023c 52bf 363d 88ce 4b3d 77f3 2bbd
00000290: 8bb2 813d ab7c 65bc 60eb 553d 3c5b 123d
000002a0: 9489 8bbb 39a9 57bc 5420 fb3d 3af2 043c
000002b0: c67b 803c c3cf 773d df5e f23c 424a 09bd
000002c0: 86aa 5d3e 4363 7dbc 42e4 07be 756f 8abc
000002d0: 638f 72bc b660 28bb 5cf7 dabd 100a 2cbb
000002e0: 7639 073e ac9a d9bc bd9f 7b3d 660f 90bd
000002f0: 3bfa 5f3d 972d 47be f542 4b3d 2af4 a33c
00000300: b4d5 88bc 59a3 363e e3db 523d 7e07 473d
00000310: 37d3 883d b26e d5bc f142 0c3d a261 f93c
00000320: a7b4 73bd bcdb c63b 8e94 c5bd 058d acbc
00000330: f2b4 b7bd 06db 843c e94b 0b3c 166e b5bd
00000340: 2f8f ee3d 4739 b03d c6d5 4c3d b697 443d
00000350: f699 cdbd 1c03 953b f321 4dbd ed49 aebb
00000360: 9ba3 09bd 540c 36be 0f37 113d e680 d6bd
00000370: 0800 08bd 6dec f9bd 3a81 583d 83c4 8f3d
00000380: 77e2 b4bd d9b5 fcbd c79b 06be 1660 7cbd
00000390: 6977 e83d 812b 02be 1fe2 143d b4d1 abbd
000003a0: 5ceb c9bd 5a57 afbd c26a b0bd fb65 0fbe
000003b0: 73fe 763d c2df 533e e286 fdbc 8779 afbc
000003c0: 2d8d e6bd 22a8 fcbd 7e00 df3d ad26 79bd
000003d0: a71f 0b3d c2d0 19bd 6a51 e13b ecb5 34bd
000003e0: 6863 e9bd dbbb 6d3d 7a86 7e3d baa1 80bd
000003f0: a63c fe3d 409f 363d d7a5 1fbd 96a0 26be

network_body._body_endoder.seq_layers.2.bias f4 [128]
-0.012616178 0.017217267 -0.010069273 0.012772197 0.015737848 -0.017172968 -0.0152048245 -0.01218717
-0.015981033 -0.014515896 0.013832227 -0.021004934 0.017723717 -0.015526923 0.010703962 -0.0015789501
0.01123889 0.007942804 -0.012638919 0.014706993 -0.014131159 -0.013310772 0.0126552805 -0.013053564
-0.014898115 -0.012335343 -0.012712407 0.012503475 -0.00095035165 -0.0156068215 0.011746517 -0.015418784
0.013454365 0.011013262 0.013841502 -0.014984121 -0.018692303 -0.012038172 -0.015479172 -0.015664814
0.012300999 0.012932803 0.007344179 0.011450627 -0.014224141 0.012281763 -0.010118521 -0.016193977
0.0102112265 -0.014744561 0.012729379 -0.0126580605 -0.013821504 0.0123549355 0.012709601 -0.014194075
0.009915828 -0.013955715 0.015629292 -0.013799328 -0.015978426 0.0164837 -0.013217829 -0.012757696
0.016093373 0.017281435 -0.018174909 0.009823902 0.01153576 0.0100593995 0.011254896 0.010593695
-0.014039027 0.0121693 -0.011860199 0.009175356 0.01137765 0.0148343975 -0.014575571 0.011510728
0.012592905 -0.011196547 -0.013785502 -0.01443518 -0.01312105 0.011213414 -0.016786024 0.011271398
-0.016113225 0.016153367 0.009854707 0.012432123 -0.01224454 0.012259519 -0.016220363 0.017265232
-0.010939428 -0.015162032 0.016566467 -0.0148528 0.012882492 0.013667699 -0.014563297 -0.012483721
-0.012089652 0.012545241 -0.016656285 -0.011809887 -0.014773051 -0.0117031215 -0.012581677 -0.013431337
0.0124971885 -0.011491926 0.011427726 0.011315239 -0.012680057 -0.018263923 0.0087337755 -0.012914848
0.016366908 -0.013595462 0.01173383 -0.018470919 0.011067993 -0.01273332 0.013334976 0.01571778
00000000: 16b4 4ebc 3a0b 8d3c 98f9 24bc 7a42 513c
00000010: a9ec 803c 53ae 8cbc a81d 79bc b2ac 47bc
00000020: a8ea 82bc 15d4 6dbc 91a0 623c 8a12 acbc
00000030: 5431 913c a364 7ebc ac5f 2f3c c6f4 ceba
00000040: 5223 383c 8922 023c 7813 4fbc 99f5 703c
00000050: 6086 67bc 6d15 5abc 1858 4f3c 9ede 55bc
00000060: 3917 74bc 2e1a 4abc b347 50bc 60db 4c3c
00000070: 0521 79ba c1b3 7fbc 7774 403c 119f 7cbc
00000080: b26f 5c3c f870 343c 78c7 623c f57f 75bc
00000090: 9a20 99bc c13b 45bc 5a9c 7dbc 7f53 80bc
000000a0: 218a 493c 1be4 533c 70a7 f03b 699b 3b3c
000000b0: 5f0c 69bc 7339 493c 27c8 25bc 3ba9 84bc
000000c0: fd4c 273c 2c93 71bc e38e 503c c163 4fbc
000000d0: 9773 62bc 5b6c 4a3c ee3b 503c 448e 68bc
000000e0: ff75 223c 83a6 64bc 0009 803c 9416 62bc
000000f0: 30e5 82bc d308 873c 988f 58bc a805 51bc
00000100: 40d6 833c cc91 8d3c 8ce3 94bc 6ef4 203c
00000110: 7c00 3d3c 2ed0 243c 7566 383c 2d91 2d3c
00000120: f203 66bc be61 473c 4851 42bc 3b54 163c
00000130: 5369 3a3c f90b 733c 60ce 6ebc 7e97 3c3c
00000140: 7952 4e3c b971 37bc 96dc 61bc 8981 6cbc
00000150: acf9 56bc 78b8 373c d882 89bc abab 383c
00000160: e2ff 83bc 1154 843c a375 213c 1ab0 4b3c
00000170: 539d 48bc 26dc 483c 91e0 84bc d16f 8d3c
00000180: 493b 33bc 2c6a 78bc 66b6 873c 2959 73bc
00000190: 1611 533c 7cee 5f3c e59a 6ebc 8588 4cbc
000001a0: ad13 46bc 8e8a 4d3c c372 88bc 427e 41bc
000001b0: ab0a 72bc 73be 3fbc 6123 4ebc 1c0f 5cbc
000001c0: 02c1 4c3c a248 3cbc 5b3b 3b3c 8d63 393c
000001d0: 04c0 4fbc 399e 95bc 1c18 0f3c cc98 53bc
000001e0: e513 863c 80bf 5ebc 403f 403c 5350 97bc
000001f0: 8756 353c 6a9f 50bc f17a 5a3c 93c2 803c

action_model._continuous_distribution.mu.weight f4 [1, 128]
-0.012447125 0.046254627 -0.028686892 0.0001409127 0.021864427 -0.050784476 -0.008394477 -0.02120711
-0.015249797 -0.02140245 -0.001147779 -0.0004767952 0.036155276 -0.0020763 0.013118407 0.00033649802
0.02740391 -0.0042778384 -0.008736835 7.458735e-05 -0.038827468 -0.02314057 0.011782534 -0.0051901527
-0.017997647 -0.03153343 -0.009875934 0.0019231024 -8.428058e-05 -0.02957612 0.009059739 -0.0202949
0.022569342 0.02353727 0.0033869082 -0.0034085056 -0.004116451 -0.015611778 -0.02541907 -0.001300927
0.008052508 0.01019884 -0.0008601433 0.010046449 -0.011494726 0.010279537 -0.008824935 -0.02268201
0.0013160981 -0.020630343 0.004970142 -0.02126963 -0.01328719 0.013316746 0.011445117 -0.0033796045
0.035842285 -0.01854506 0.019163746 -0.00854825 -0.023463454 0.00875638 -0.018521875 -0.010821808
0.014779133 0.01561307 -0.012041901 0.0018933116 0.00202231 0.027707167 0.005754215 0.004883188
-0.033805568 0.04616482 -0.014310857 0.00010991672 0.013786477 0.01105552 -0.018651178 0.009129576
0.006294611 -0.00299305 -0.013818625 -0.0106617045 -0.016341204 0.032154873 -0.0070508756 0.0071562934
-0.023301562 0.008960829 0.0027756866 0.007875758 -0.0013083689 0.03488535 -0.001032807 0.012421851
-0.0039805886 -0.034269378 0.0009931214 -0.009662253 -0.006721888 0.025364785 -0.0012830949 -0.0048822258
-0.00036017506 -0.006797228 -0.023152484 -0.029176932 -0.017895065 -0.041866094 -0.017145783 -0.031327017
0.022335134 -0.0194846 0.016623592 0.013271902 -0.010585192 -0.0067240708 0.0007763848 -0.005823673
0.008400616 -0.00043826803 0.040060274 -0.020684082 -0.003527273 -0.011987585 0.011277289 0.03465976
00000000: 07ef 4bbc 7e75 3d3d c600 ebbc f7c1 1339
00000010: 071d b33c 6203 50bd fd88 09bc 88ba adbc
00000020: 49da 79bc 3154 afbc 1371 96ba 5efa f9b9
00000030: 8e17 143d 8912 08bb 96ee 563c 006c b039
00000040: 2a7e e03c 1c2d 8cbb f124 0fbc c76b 9c38
00000050: 8d09 1fbd 4b91 bdbc 880b 413c 2812 aabb
00000060: cd6f 93bc 3329 01bd abce 21bc 9c10 fc3a
00000070: cbbf b0b8 9f49 f2bc 4d6f 143c 7d41 a6bc
00000080: 57e3 b83c 3cd1 c03c e4f6 5d3b 3c61 5fbb
00000090: 4be3 86bb 8bc8 7fbc a73b d0bc de83 aaba
000000a0: abee 033c 0919 273c 3d7b 61ba dc99 243c
000000b0: 6054 3cbc 816b 283c 7696 10bc 9fcf b9bc
000000c0: ed80 ac3a f700 a9bc 93dc a23b a63d aebc
000000d0: 84b2 59bc 7b2e 5a3c 4d84 3b3c 5b7c 5dbb
000000e0: 5ccf 123d cfeb 97bc 4afd 9c3c f60d 0cbc
000000f0: 6e36 c0bc eb76 0f3c 30bb 97bc f44d 31bc
00000100: 2d24 723c f6cd 7f3c 654b 45bc ff28 f83a
00000110: bb88 043b 24fa e23c db8d bc3b 2603 a03b
00000120: b577 0abd 5317 3d3d 1678 6abc 1783 e638
00000130: ade0 613c 3622 353c 5bca 98bc 3894 153c
00000140: 0643 ce3b 0c27 44bb 8467 62bc 6eae 2ebc
00000150: fddd 85bc d4b4 033d 080b e7bb 577f ea3b
00000160: ebe2 bebc 71d0 123c 4be8 353b 5309 013c
00000170: 937d abba f1e3 0e3d 415f 87ba 0585 4b3c
00000180: 996f 82bb 0c5e 0cbd a02b 823a 6d4e 1ebc
00000190: 4943 dcbb cfc9 cf3c 852d a8ba 14fb 9fbb
000001a0: e1d5 bcb9 48bb debb 47aa bdbc 7604 efbc
000001b0: ac98 92bc c87b 2bbd 5075 8cbc c250 00bd
000001c0: 2cf8 b63c 2b9e 9fbc 332e 883c 6472 593c
000001d0: 836d 2dbc 9855 dcbb 4d86 4b3a 83d4 bebb
000001e0: bda2 093c 57c7 e5b9 3e16 243d aa71 a9bc
000001f0: d229 67bb 9367 44bc 61c4 383c 64f7 0d3d

action_model._discrete_distribution.branches.0.weight f4 [1, 128]
0.0075920084 -0.001997691 0.010358035 -0.008771862 0.008557524 0.0011034647 0.0034944534 -0.006377473
0.00053400936 0.009511394 -0.0035615512 -0.0044092024 0.01731509 0.0060530934 -0.0082726795 0.007100437
0.0057525435 0.0025013003 -0.0043918714 0.004276621 -0.012806581 0.009250993 0.000338946 -0.0034781743
0.001463604 0.0009564887 0.0062387427 -0.0035592604 -0.011792732 -0.002555974 0.0045485883 0.019207215
-0.010784692 0.0016579928 -0.017158264 -0.0026838211 0.014315012 -0.01098652 -0.017932696 0.0055155037
0.002076755 0.0033428345 -0.00031551108 -0.0060297097 -0.0050518997 -0.016484087 0.0011501084 0.010338824
-0.008665791 0.012685954 0.0039136703 0.0034066213 -0.0028290981 -5.017969e-05 0.0023112346 -0.010223652
-0.004985306 0.012662164 -0.0037390962 0.01908662 -0.0046194647 0.004599659 -0.013856116 -0.0033048564
-0.007821149 -0.0032661196 0.003825634 0.004240038 0.0032879964 -0.010034097 -0.002698984 0.01007392
0.005163278 0.016926637 -0.0023564782 -0.0088274395 0.012806018 0.0021567103 0.0070765386 -0.0016340114
-0.009214527 -0.003794032 4.1859214e-05 -0.011284867 0.01864682 0.0007602895 -0.0016907975 0.0017530276
-0.0075643263 0.0035188165 -0.0011741683 0.001991046 -0.00029577047 0.015267561 0.014494835 -0.0035167285
-0.003076501 1.4466306e-05 0.0005657038 -0.0054341014 -0.006679769 -0.011220791 0.0039706407 0.005705832
-0.0071054935 -0.0012948926 0.009873461 0.025863463 -0.0084568495 -0.0073784254 -0.0064395876 -0.0078544
-0.005038168 -0.0038947843 0.008979923 -0.010582886 -0.0012642486 0.0066261045 0.00022996942 0.00040587923
-0.005940683 0.0078065703 -0.0020592466 -0.010382711 -0.0055330126 -0.00015918346 -0.017179094 -0.010684179
00000000: 62c6 f83b b2eb 02bb bfb4 293c dbb7 0fbc
00000010: db34 0c3c 22a2 903a 3303 653b 1ffa d0bb
00000020: c3fc 0b3a aed5 1b3c ea68 69bb 127b 90bb
00000030: 60d8 8d3c 0759 c63b 228a 07bc c8aa e83b
00000040: d57f bc3b dbec 233b b0e9 8fbb e622 8c3b
00000050: b2d2 51bc 7a91 173c 90b4 b139 15f2 63bb
00000060: 67d6 bf3a dfbc 7a3a 5e6e cc3b 7b42 69bb
00000070: 4e36 41bc 2182 27bb 530c 953b 7358 9d3c
00000080: 47b2 30bc 0251 d93a 7d8f 8cbc 0ce3 2fbb
00000090: 8389 6a3c ce00 34bc 97e7 92bc 66bb b43b
000000a0: 2b1a 083b 7513 5b3b 2e6b a5b9 df94 c5bb
000000b0: 688a a5bb a309 87bc 3cbf 963a 2c64 293c
000000c0: f6fa 0dbc bfd8 4f3c 3f3e 803b 9f41 5f3b
000000d0: 6468 39bb 0878 52b8 1578 173b 1b81 27bc
000000e0: c75b a3bb f774 4f3c a00b 75bb 8b5b 9c3c
000000f0: e15e 97bb bcb8 963b c304 63bc 4a96 58bb
00000100: 4724 00bc 650c 56bb 7db7 7a3b 04f0 8a3b
00000110: 6d7b 573b 0e66 24bc 70e1 30bb 150d 253c
00000120: b730 a93b bba9 8a3c 256f 1abb f7a0 10bc
00000130: 55d0 513c 9857 0d3b 4fe2 e73b 532c d6ba
00000140: 87f8 16bc 4ba5 78bb fd91 2f38 2ae4 38bc
00000150: 37c1 983c 2a4e 473a c09d ddba d8c5 e53a
00000160: 2bde f7bb f29b 663b 8de6 99ba 357c 023b
00000170: a411 9bb9 cb24 7a3c bf7b 6d3c ea78 66bb
00000180: 1f9f 49bb 50b4 7237 bd4b 143a 8c10 b2bb
00000190: f7e1 dabb 69d7 37bc 261c 823b fdf7 ba3b
000001a0: 33d5 e8bb 63b9 a9ba 4cc4 213c 9ddf d33c
000001b0: 998e 0abc b8c6 f1bb 2d03 d3bb beaf 00bc
000001c0: 3717 a5bb a33f 7fbb 8720 133c d763 2dbc
000001d0: 25b5 a5ba cb1f d93b f223 7139 30cc d439
000001e0: 10aa c2bb 42ce ff3b 6df4 06bb 3f1c 2abc
000001f0: 464e b5bb 7cea 26b9 2cbb 8cbc b20c 2fbc
