results/PelletRun1/Agent Controller/Agent Controller-500020.onnx (onnx, 75694 bytes, 8 tensors)

network_body._body_endoder.seq_layers.0.weight f4 [128, 1]
-3.831369 1.1521618 1.1164684 0.93567526 1.300507 0.80954367 -1.3609147 -0.23673734
0.73106736 0.35521713 1.028682 -1.0342479 -0.14491707 -1.4357743 0.40557548 -0.037468612
1.034758 1.0503316 0.2132339 0.20269153 -0.49451652 0.088282935 0.030306656 -0.5560531
-0.48582253 -0.9854952 1.3688662 -0.4631846 -0.2009118 -0.53672266 -0.3444442 -0.44041523
-0.079661414 0.701033 -1.52695 1.212799 1.0893428 -0.3710076 0.8019601 0.17244053
-0.15263805 -0.9077979 1.696104 0.16592617 -0.7731525 -0.59089315 1.2040057 0.044616677
1.2208283 -0.56241655 0.6744086 1.0907998 -0.7912923 -1.0785953 0.92161053 -0.27282122
-1.4251636 0.520567 0.29024 1.120901 0.24609034 0.30516803 -0.5753963 0.18603396
0.48819348 -1.0625253 0.5437902 -1.1088843 -0.7034575 -1.3543127 -1.7712705 0.30651367
1.7302303 0.81080514 0.27320373 -1.1693591 0.6538802 0.703303 0.007745761 0.8280143
1.8928784 0.12379681 -1.3242548 0.0726046 -1.2498392 -0.97454125 -1.5643418 -0.71061677
-0.10415588 0.6741041 -0.13960427 1.4141612 -1.0957934 0.14059083 -0.16515848 -0.35242608
-1.9453931 1.894283 0.4228455 0.96249676 0.016717117 0.5688446 0.07609013 -0.48406637
-1.8691597 2.0737464 -1.342726 0.8950459 -0.24927075 0.8296277 0.25672314 0.9896367
0.8664446 0.6884289 -0.07201912 -1.4934039 0.22164357 -0.39675134 -0.4575444 0.41338572
1.6073701 0.81200355 -0.8702293 -0.8742009 1.7527506 1.0216837 -1.0023038 -0.5674598
00000000: 2635 75c0 0a7a 933f 70e8 8e3f 6a88 6f3f
00000010: 0377 a63f 413e 4f3f 7432 aebf 466b 72be
00000020: 3b27 3b3f 05df b53e daab 833f 3c62 84bf
00000030: 2465 14be 74c7 b7bf 97a7 cf3e b078 19bd
00000040: f372 843f 4471 863f fd59 5a3e 5e8e 4f3e
00000050: 4531 fdbe afcd b43d aa45 f83c 7f59 0ebf
00000060: bbbd f8be 6a49 7cbf 0237 af3f 8826 edbe
00000070: d3bb 4dbe a866 09bf fd5a b0be 1b7e e1be
00000080: 8625 a3bd e676 333f 1973 c3bf ff3c 9b3f
00000090: 966f 8b3f b5f4 bdbe 424d 4d3f 4094 303e
000000a0: 264d 1cbe 7165 68bf f019 d93f 8de8 293e
000000b0: 52ed 45bf c644 17bf dc1c 9a3f fabf 363d
000000c0: 1a44 9c3f 88fa 0fbf 0ba6 2c3f 549f 8b3f
000000d0: 2292 4abf 690f 8abf abee 6b3f 39af 8bbe
000000e0: c36b b6bf e143 053f 569a 943e af79 8f3f
000000f0: 1bff 7b3e fc3e 9c3e 2c4d 13bf b07f 3e3e
00000100: 7ff4 f93e d400 88bf d635 0b3f ecef 8dbf
00000110: ca15 34bf 1e5a adbf feb8 e2bf 5cef 9c3e
00000120: 3078 dd3f ed90 4f3f 5ce1 8b3e 8fad 95bf
00000130: b164 273f aa0b 343f 27d0 fd3b bff8 533f
00000140: d749 f23f 2f89 fd3d 2e81 a9bf b8b1 943d
00000150: bbfa 9fbf 897b 79bf 5a3c c8bf fbea 35bf
00000160: ae4f d5bd 1692 2c3f 6cf4 0ebe 3c03 b53f
00000170: f542 8cbf 0bf7 0f3e 4e1f 29be 3171 b4be
00000180: a402 f9bf de77 f23f 357f d83e 3066 763f
00000190: 56f2 883c cd9f 113f 24d5 9b3d 8cd7 f7be
000001a0: a040 efbf 43b8 0440 72de abbf ba21 653f
000001b0: d540 7fbe 7b62 543f 3771 833e d558 7d3f
000001c0: 50cf 5d3f e03c 303f c37e 93bd dc27 bfbf
000001d0: 88f6 623e fe22 cbbe 4243 eabe 4ba7 d33e
000001e0: 4ebe cd3f 77df 4f3f 59c7 5ebf a1cb 5fbf
000001f0: 225a e03f 88c6 823f 7e4b 80bf 0c45 11bf

network_body._body_endoder.seq_layers.0.bias f4 [128]
-0.017313793 0.009380549 -0.02110066 0.0012418495 0.008791104 0.016951915 -0.015439148 -0.003707242
-0.03299643 -0.025269054 0.008251379 -0.0045320783 -0.014633515 -0.0054017147 -0.02251055 0.014530621
0.006152449 -0.023129178 -0.02471963 -0.007349312 0.022205066 0.02741268 -0.0049064783 -0.0092009995
-0.0045909486 -0.004311797 -0.008193659 -0.005221814 0.02104092 -0.012706361 -0.003993414 -0.014355925
0.036869954 0.00433542 -0.0130984485 0.024075545 -0.016909873 -0.0012078115 0.008047221 0.012597493
0.0066845096 -0.015045424 -0.039583504 -0.0046481625 0.02696953 -0.015307248 0.016300142 -0.022069162
-0.021736406 0.021567978 -0.0051215887 -0.020120861 0.0001658186 -0.014206023 0.008343864 0.0040147025
-0.013335245 0.002877476 -0.022201464 -0.03324469 0.0047014835 0.017201258 0.028802432 -0.019388126
-0.011172869 0.004325896 0.01129919 0.011191766 -0.0051273224 0.006366658 -0.012076302 -0.014607535
0.008796191 -0.031925328 0.009544421 -0.013248454 0.026244821 -0.015678013 0.017944785 0.010029508
-0.03561436 -0.0073366836 -0.010794368 0.017517028 0.014404811 0.016903501 -0.0060027456 -0.010205253
-0.0070616934 0.021487318 0.014936245 -2.0591415e-05 0.009337888 -0.0054567945 0.018034901 -0.01998845
0.0013699637 -0.03446355 -0.015896967 -0.014760692 -0.021991136 0.0016891115 0.009906601 -0.018467378
0.006162053 -0.020646978 -0.016075525 0.0047646975 0.015530105 -0.015957661 0.02042768 0.008289311
0.018657604 -0.018550603 -0.010609957 -0.004048279 -0.03259861 0.0022697188 -0.0140336435 -0.01616999
0.015815439 -0.0040370505 -0.03360334 0.011718806 -0.005847116 -0.014264611 0.007264552 -0.0056712306
00000000: a8d5 8dbc e0b0 193c 4bdb acbc 8ec5 a23a
00000010: 9008 103c bede 8a3c 7bf4 7cbc 33f5 72bb
00000020: 4427 07bd 0c01 cfbc cb30 073c d481 94bb
00000030: 69c1 6fbc de00 b1bb 0c68 b8bc d711 6e3c
00000040: 7c9a c93b 6779 bdbc d280 cabc 7fd2 f0bb
00000050: 66e7 b53c 8f90 e03c 86c6 a0bb cabf 16bc
00000060: ab6f 96bb fa49 8dbb b23e 06bc c01b abbb
00000070: 025e ac3c 572e 50bc 2fdb 82bb 1d35 6bbc
00000080: f304 173d 2410 8e3b e09a 56bc 143a c53c
00000090: 9386 8abc 6e4f 9eba 7ed8 033c b765 4e3c
000000a0: bb09 db3b 1581 76bc 5022 22bd 9d4f 98bb
000000b0: 34ef dc3c 40cb 7abc e087 853c 63ca b4bc
000000c0: 8c10 b2bc 54af b03c 00d3 a7bb 81d4 a4bc
000000d0: 97df 2d39 61c0 68bc b4b4 083c c48d 833b
000000e0: 127c 5abc 0994 3c3b d8df b5bc 962b 08bd
000000f0: e70e 9a3b a7e9 8c3c 14f3 eb3c d9d3 9ebc
00000100: 690e 37bc 3fc0 8d3b 3d20 393c ab5d 373c
00000110: 1903 a8bb 669f d03b afdb 45bc 7154 6fbc
00000120: e61d 103c 22c4 02bd 3460 1c3c 0b10 59bc
00000130: 61ff d63c 2d6f 80bc f100 933c ce52 243c
00000140: 5de0 11bd 9068 f0bb dcda 30bc df7f 8f3c
00000150: 2802 6c3c 3679 8a3c aeb2 c4bb ef33 27bc
00000160: c765 e7bb 2c06 b03c 27b7 743c babb acb7
00000170: f1fd 183c e9ce b2bb eebd 933c d1be a3bc
00000180: 5b90 b33a a729 0dbd 5b3a 82bc d4d6 71bc
00000190: c126 b4bc 2d65 dd3a 4c4f 223c e648 97bc
000001a0: 0ceb c93b da23 a9bc d2b0 83bc 2e21 9c3b
000001b0: fb71 7e3c a4b9 82bc f357 a73c e4cf 073c
000001c0: d5d7 983c 6ff7 97bc 63d5 2dbc 6da7 84bb
000001d0: 1f86 05bd 90bf 143b 5eed 65bc ed76 84bc
000001e0: 618f 813c 3c49 84bb a8a3 09bd 3c00 403c
000001f0: 2a99 bfbb 1db6 69bc 7b0b ee3b bbd5 b9bb

network_body._body_endoder.seq_layers.2.weight f4 [128, 128]
0.006947377 -0.024274215 0.03689301 0.03722363 0.01956457 -0.2048052 0.062309004 0.06428697
-0.006258958 0.039084196 -0.12388959 0.14677642 0.097360976 0.04752481 0.07167061 0.104770474
-0.032118518 0.009917098 -0.06381976 -0.08184219 -0.1224885 0.09278754 0.16007777 0.016632704
0.015334497 0.12749884 0.017311394 -0.13364744 0.011639959 -0.06800295 -0.038456753 -0.02070059
-0.047313675 0.05339814 -0.029664971 -0.068755575 -0.059524667 -0.21569853 0.01414681 -0.16873337
0.025274426 0.04625698 -0.013517053 -0.035223838 -0.17293885 0.052813746 0.022978062 -0.06647113
0.011557427 -0.14205825 -0.053769022 -0.048753526 -0.039253835 -0.025071895 -0.015398645 -0.1564222
0.19800486 0.0014859803 0.0137471575 0.02314612 -0.019784715 -0.034461018 -0.037224606 0.107736275
0.15015586 0.17066792 -0.10608659 0.21489635 -0.011830818 0.0623744 0.2103228 0.05241317
-0.04465246 0.13173771 0.025085423 -0.0072073913 0.1383522 0.02483562 0.16129345 -0.034330927
0.038142357 -0.038745783 0.011685917 -0.087965876 -0.06303153 0.033265628 0.19679049 -0.019500315
0.0031268015 -0.030099817 0.086736165 -0.025668517 -0.11004477 -0.10819075 -0.061966535 -0.0026375588
0.07272613 0.08374001 0.0651616 0.032303616 -0.045122907 -0.054094076 0.017105106 -0.08059692
-0.028851092 0.00527746 -0.00019905245 0.2248097 0.07008544 -0.006778014 0.038351066 0.037557803
-0.05704019 -0.006161044 0.10992213 -0.008660078 0.020958232 0.090476066 -0.14363453 -0.007859125
0.04060963 0.10217202 0.20200162 0.10894668 0.10476851 -0.060009714 0.10707188 -0.0028476652
0.05570006 0.020538442 0.109328836 0.1592738 0.020597205 0.050485905 0.035740454 -0.04901296
-0.20516263 -0.026106644 -0.0014188816 -0.08642616 -0.1151622 -0.053119387 0.00541967 -0.10153285
0.0326988 0.051159024 -0.061398305 -0.08545233 -0.0026653334 0.12091658 -0.011974509 0.12313804
0.08250663 -0.063923545 -0.088039406 0.07872883 0.13449174 0.08637875 -0.0073040016 0.07977774
-0.044804536 -0.24885648 0.080213144 0.04837666 0.09070946 -0.21200131 -0.097302556 -0.021077255
-0.07409288 0.04078694 0.17099409 0.13004343 -0.07982822 -0.07455167 0.12467269 0.11183684
-0.047591127 0.05706221 -0.020286227 -0.04959453 -0.18362737 -0.02289605 0.05004217 0.010120799
-0.031730797 -0.04128781 0.048741046 0.020665651 -0.07904464 0.118900694 0.04147881 -0.15349817
0.033896208 -0.072973795 -0.023871869 -0.06900536 0.021690914 -0.06978249 0.14686085 0.028741091
-0.13045716 0.016020957 0.15665746 0.1403543 -0.07034105 -0.11911383 0.091811016 -0.087602705
0.08963861 -0.009404765 0.031619355 0.040366042 -0.064575486 0.044420026 -0.05027636 0.022554029
-0.15487128 0.06742126 0.10501698 -0.11470776 -0.12761226 -0.06821266 -0.07668431 -0.014337844
0.0059362133 -0.21309166 -0.01830824 -0.015322607 0.09682258 -0.03093168 0.104732744 0.0101471385
0.058024734 -0.061693937 -0.1626058 -0.037190188 -0.15676813 0.057416297 -0.06081099 0.047575474
-0.042699102 0.069797434 -0.18723367 -0.0060353996 0.26195893 0.20134817 0.12360332 0.08617503
-0.037713457 0.013142316 -0.0102193635 -0.1441071 -0.107316054 0.03332012 -0.016550234 -0.1100522
00000000: d3a6 e33b b8da c6bc 201d 173d ce77 183d
00000010: e145 a03c 74b8 51be ba37 7f3d e3a8 833d
00000020: f217 cdbb c016 203d d3b9 fdbd 8f4c 163e
00000030: 3165 c73d 60a9 423d 0ac8 923d e791 d63d
00000040: b58e 03bd 537b 223c efb3 82bd e19c a7bd
00000050: 40db fabd 6507 be3d 6deb 233e 4f41 883c
00000060: 8b3d 7b3c 0e8f 023e a0d0 8d3c e0da 08be
00000070: 87b5 3e3c 2145 8bbd d484 1dbd 4994 a9bc
00000080: fccb 41bd 02b8 5a3d f403 f3bc b9cf 8cbd
00000090: 23d0 73bd 13e0 5cbe 06c8 673c 71c8 2cbe
000000a0: 500c cf3c f677 3d3d a176 5dbc df46 10bd
000000b0: e216 31be 3a53 583d 7d3c bc3c 0422 88bd
000000c0: 5d5b 3d3c b877 11be e83c 5cbd c7b1 47bd
000000d0: a1c8 20bd 9363 cdbc 994a 7cbc 242d 20be
000000e0: c9c1 4a3e 3ac5 c23a c23b 613c ef9c bd3c
000000f0: 8e13 a2bc ff26 0dbd d478 18bd d6a4 dc3d
00000100: 75c2 193e 92c3 2e3e ed43 d9bd ca0d 5c3e
00000110: 0cd6 41bc 4d7c 7f3d dc5e 573e 31af 563d
00000120: 7fe5 36bd 40e6 063e f27f cd3c fb2b ecbb
00000130: 33ac 0d3e 1274 cb3c 1c2a 253e 969e 0cbd
00000140: 293b 1c3d e6b3 1ebd 4a76 3f3c 7427 b4bd
00000150: ad16 81bd 8a41 083d 7283 493e 20bf 9fbc
00000160: 06eb 4c3b e493 f6bc bba2 b13d c846 d2bc
00000170: 275f e1bd 1d93 ddbd 9fd0 7dbd e5da 2cbb
00000180: 70f1 943d e27f ab3d 7273 853d cc50 043d
00000190: ccd2 38bd c091 5dbd 0220 8c3c ff0f a5bd
000001a0: 2059 ecbc 8bee ac3b bcb8 50b9 8434 663e
000001b0: f588 8f3d 1a1a debb 0216 1d3d 36d6 193d
000001c0: f9a2 69bd 95e2 c9bb db1e e13d 00e3 0dbc
000001d0: 99b0 ab3c 844b b93d ee14 13be 8fc3 00bc
000001e0: 4956 263d 903f d13d 83d9 4e3e 701f df3d
000001f0: df90 d63d bfcc 75bd 8048 db3d e59f 3abb
00000200: bf25 643d 3c40 a83c cce7 df3d ac18 233e
00000210: 78bb a83c 4fca 4e3d 9564 123d d0c1 48bd
00000220: 2716 52be 9add d5bc c4f9 b9ba 3300 b1bd
00000230: 29da ebbd b793 59bd 7d97 b13b 74f0 cfbd
00000240: 2def 053d 208c 513d ca7c 7bbd a201 afbd
00000250: e0ac 2ebb 1da3 f73d bb30 44bc cc2f fc3d
00000260: 3cf9 a83d 59ea 82bd 014e b4bd 953c a13d
00000270: 34b8 093e 58e7 b03d 6856 efbb 8362 a33d
00000280: f684 37bd 3cd4 7ebe ca46 a43d 9b26 463d
00000290: e2c5 b93d df16 59be 9046 c7bd 35aa acbc
000002a0: 02be 97bd 3510 273d 1319 2f3e 1b2a 053e
000002b0: fa7c a3bd 8cae 98bd 6554 ff3d b70a e53d
000002c0: eaee 42bd 10ba 693d 4d2f a6bc a223 4bbd
000002d0: d008 3cbe 7f90 bbbc 05f9 4c3d b5d1 253c
000002e0: 27f8 01bd 681d 29bd b1a4 473d 034b a93c
000002f0: 28e2 a1bd 3582 f33d afe5 293d a02e 1dbe
00000300: c0d6 0a3d 4973 95bd f08e c3bc af52 8dbd
00000310: 25b1 b13c 1fea 8ebd b162 163e 7072 eb3c
00000320: 9096 05be 623e 833c d06a 203e 0ab9 0f3e
00000330: f80e 90bd f4f1 f3bd 6a07 bc3d 0c69 b3bd
00000340: 7394 b73d 7216 1abc 4c83 013d dd56 253d
00000350: 2740 84bd c6f1 353d 96ee 4dbd 3ac3 b83c
00000360: 9496 1ebe 2814 8a3d 2413 d73d e7eb eabd
00000370: caac 02be 14b3 8bbd aa0c 9dbd 47e9 6abc
00000380: 9184 c23b b334 5abe 2afb 95bc ac0b 7bbc
00000390: eb4a c63d 6f64 fdbc 1f7e d63d 2f40 263c
000003a0: 58ab 6d3d c8b2 7cbd 2382 26be bd54 18bd
000003b0: d387 20be 5a2d 6b3d f214 79bd 80de 423d
000003c0: 41e5 2ebd f5f1 8e3d 2fba 3fbe 9ac4 c5bb
000003d0: 7b1f 863e 372e 4e3e bd23 fd3d 897c b03d
000003e0: 6d79 1abd de52 573c 1e6f 27bc d090 13be
000003f0: 85c8 dbbd ae7a 083d 5b94 87bc 0c63 e1bd

network_body._body_endoder.seq_layers.2.bias f4 [128]
-0.025656307 -0.024541602 0.019142238 0.021589294 -0.024056474 -0.009182053 0.0098725045 -0.021570671
0.02081299 -0.021780448 0.020503232 -0.005739092 -0.018243426 0.0132861715 -0.01407593 -0.006521205
0.010982784 -0.008256298 0.0131479455 -0.009091831 0.005263573 -0.025528168 0.005248437 0.0013202241
-0.019379098 0.002046911 0.015424451 -0.023904141 -0.005430511 0.021255618 0.013563872 -0.015793866
-0.022312343 0.014016214 0.022673797 0.0028781395 0.03306571 0.005203254 0.026394334 0.009258017
0.016501779 -0.002741871 -0.018914565 0.031309783 -0.0018421762 -0.022526452 0.037165213 -0.011803313
-0.024929266 0.0021298048 -0.0043347646 -0.00648471 0.01759635 0.006807172 -0.009863352 0.009795561
-0.01102712 -0.025528722 -7.719039e-05 -0.014634353 -0.014858589 0.018079622 -0.016385136 -0.015083269
-0.011776966 0.026595471 -0.027197078 -0.02237591 -0.023971705 0.01062309 0.015662346 0.013588305
0.0012631856 0.023683695 -0.003792808 0.020807449 -0.029371394 -0.01367446 -0.013546318 -0.021378951
-0.027097164 -0.01671071 -0.033484958 -0.02071172 0.019965595 -0.026916806 -0.02605025 -0.025969766
0.007868021 0.021603053 0.015584878 -0.016541908 0.012105481 0.021385504 0.019230647 -0.016861696
-0.022775985 -0.014379792 -0.009889593 0.026168892 0.0015965063 -0.015522191 -0.021083908 0.012994907
0.00439593 -0.018297203 0.0018394648 -0.025606567 0.034780454 0.0002937225 -0.00022792023 -0.0147554
0.012545249 -0.015455679 -0.009129637 0.012316246 0.020504918 0.016105995 0.017169248 -0.014166019
0.026403982 -0.02822157 -0.028359622 -0.027367257 0.009287113 -0.012366468 -0.0139531195 -0.023354119
00000000: 2d2d d2bc 780b c9bc 2fd0 9c3c 08dc b03c
00000010: 1512 c5bc 5270 16bc 49c0 213c fab4 b0bc
00000020: 0180 aa3c e96c b2bc 65f6 a73c fe0e bcbb
00000030: 3d73 95bc 3eae 593c bb9e 66bc d5af d5bb
00000040: 23f1 333c 6c45 07bc 7b6a 573c e7f5 14bc
00000050: 0d7a ac3b 7320 d1bc 15fb ab3b 5f0b ad3a
00000060: eac0 9ebc 7825 063b d6b6 7c3c 9ed2 c3bc
00000070: 6ef2 b1bb 4320 ae3c 013b 5e3c 2362 81bc
00000080: 60c8 b6bc 43a4 653c 66be b93c 2b9f 3c3b
00000090: e96f 073d 0f80 aa3b ee38 d83c f0ae 173c
000000a0: bd2e 873c f6b0 33bb b8f2 9abc b03e 003d
000000b0: 2d75 f1ba 6589 b8bc 8d3a 183d af62 41bc
000000c0: 7638 ccbc 3294 0b3b a40a 8ebb b17d d4bb
000000d0: 3826 903c b30e df3b e699 21bc 907d 203c
000000e0: 18ab 34bc 9c21 d1bc 46e1 a1b8 edc4 6fbc
000000f0: 7071 73bc b71b 943c 1f3a 86bc d11f 77bc
00000100: 2df4 40bc bfde d93c 68cc debc af4d b7bc
00000110: 4f60 c4bc 780c 2e3c 524e 803c 7ba1 5e3c
00000120: 7a91 a53a 4f04 c23c c290 78bb 6274 aa3c
00000130: 479c f0bc d80a 60bc 60f1 5dbc e922 afbc
00000140: dffa ddbc e6e4 88bc 8627 09bd a0ab a9bc
00000150: e38e a33c a280 dcbc 5567 d5bc 8cbe d4bc
00000160: dfe8 003c e3f8 b03c b757 7f3c e582 87bc
00000170: 1156 463c a730 af3c 9789 9d3c 8a21 8abc
00000180: b494 babc 3899 6bbc f607 22bc 2560 d63c
00000190: dd41 d13a ca50 7ebc 29b8 acbc 97e8 543c
000001a0: bc0b 903b 04e4 95bc 321a f13a ddc4 d1bc
000001b0: f375 0e3d c4fe 9939 dffd 6eb9 a2c0 71bc
000001c0: 978a 4d3c d139 7dbc 7994 15bc 14ca 493c
000001d0: eef9 a73c b8f0 833c 86a6 8c3c 9718 68bc
000001e0: 2a4d d83c ec30 e7bc 7052 e8bc 4c31 e0bc
000001f0: fa28 183c ba9c 4abc a09b 64bc 2351 bfbc

action_model._continuous_distribution.log_sigma f4 [1, 2]
0.028717116 0.006483891
00000000: 2840 eb3c d276 d43b

action_model._continuous_distribution.mu.weight f4 [2, 128]
0.014182831 0.030637478 -0.01365043 -0.02184049 0.0011042844 0.018791486 -0.018508803 0.033129588
-0.01801267 0.026412899 -0.013020646 0.04509214 0.026621774 -0.020262752 0.03826039 0.033181872
-0.022817517 0.0004215182 -0.018665306 0.04362409 0.012805756 0.0108280815 0.0015039791 -0.026051607
0.03217486 -0.0037175282 -0.0029925194 0.004408945 0.013594499 -0.0066630756 -0.009031072 0.011916237
0.051278286 -0.0031301966 -0.018452724 -0.0024170897 -0.008959922 -0.014904412 -0.019968579 -0.026554607
-0.031079927 -0.001565208 0.03426053 0.008364629 -0.008218608 0.029124223 -0.017139269 0.06839665
0.016117949 -0.005914205 0.04471051 -0.0008636985 -0.0150979655 -0.020494476 0.00844958 -0.03954773
0.011214185 0.0065208357 0.017343065 0.042132933 0.001881378 -0.004224059 0.034808613 0.02952274
0.014465638 -0.010671223 0.009662856 0.004858883 0.013090481 -0.0010876867 -0.02408234 -0.0031488151
-0.0038437555 -0.000724572 0.014738601 0.035007507 0.0026361654 0.024121374 0.041913483 0.0071770684
0.029947488 -0.0018304414 0.022719285 0.016390704 -0.014654353 0.02579803 -0.0016524822 0.03316317
-0.020312972 -0.019878058 0.016763918 -0.0014529943 -0.033281516 -0.025514932 -0.011317384 0.041489173
-0.001689874 0.0029107824 0.019609608 -0.0034890869 0.021178843 0.0035468137 0.023199959 -0.020711835
0.0070432345 0.009946248 0.009340836 0.010573333 -0.02311466 0.04645611 0.05219424 0.037094224
-0.03522504 0.014547886 -0.005399612 0.0026963567 -0.008763332 -0.02663723 -0.0013949497 0.036266822
0.0002366273 0.009558249 0.011103059 0.021399725 -0.004274205 0.013815231 0.013682429 0.013645436
0.013879009 0.01153097 -0.011354064 -0.034458227 0.0008312668 -0.009419152 0.002051561 0.0117621925
-0.01123413 0.00667782 -0.007370967 -0.015227877 0.007520876 -0.00918531 -0.0061394093 -0.022911401
0.013473894 0.017199345 -0.0006077615 -0.042049844 0.0057200305 0.0083054 -0.008770728 0.023443222
-0.0007284773 0.017463863 -0.019200198 0.02829177 -0.021333454 -0.016413977 0.0076995566 -0.0003864183
0.016668528 0.0014877026 -0.0154572865 0.005083735 -0.016420823 0.008120294 -0.02566257 0.009301523
0.009833741 0.02368381 0.010725026 -0.007230714 0.011917575 0.00089871447 -0.054810796 -0.0035000367
0.015422341 0.024507036 -0.017349925 0.026849743 -0.0039029708 0.016509037 -0.005193774 0.033632163
-0.0062034167 0.033873513 -0.0074575483 -0.005035721 1.4146533e-05 -0.010066165 -0.00072610984 0.005601181
-0.015927106 -0.021684166 0.009788142 -0.00053405506 0.0055359164 -0.02964485 0.0019241715 -0.023510339
0.020876061 -0.034183294 -0.016216025 -0.04825651 0.00862738 -0.012309268 -0.0054664207 0.015237668
0.010984069 0.022260224 0.02465254 -0.0003805241 -0.011165634 0.017245 0.011013563 0.018555133
0.019911136 -0.016479723 -0.0039932155 0.009354237 0.0040436652 -0.008262279 -0.006320532 0.00032626058
0.013507876 0.01617672 -0.022267258 -0.025921969 -0.028430136 -0.0015841068 0.0060629793 -0.01782805
-0.035253633 0.0023174197 -0.022685543 0.0082341805 -0.044283852 -0.0325004 -0.03056039 -0.0033104196
0.017106047 -0.00355163 0.020060522 -0.00014392173 -0.01979204 -0.005254211 -0.018043457 -0.0114797205
-0.0076855505 0.013105389 0.014867272 0.012120923 -0.0022439766 -0.010819987 -0.009327638 0.0035509362
00000000: 1b5f 683c 73fb fa3c 0ea6 5fbc d4ea b2bc
00000010: a3bd 903a 9af0 993c c69f 97bc e4b2 073d
00000020: 4f8f 93bc dd5f d83c 8c54 55bc 89b2 383d
00000030: e815 da3c 12fe a5bc edb6 1c3d b7e9 073d
00000040: cdeb babc 37ff dc39 fce7 98bc 2caf 323d
00000050: 3ccf 513c 4468 313c 2a21 c53a 2e6a d5bc
00000060: c9c9 033d c6a1 73bb 251e 44bb e978 903b
00000070: 76bb 5e3c ee55 dabb 10f7 13bc 523c 433c
00000080: 2e09 523d fc23 4dbb 2b2a 97bc 0968 1ebb
00000090: a3cc 12bc a331 74bc 2595 a3bc 0c89 d9bc
000000a0: 559b febc aa27 cdba c554 0c3d cc0b 093c
000000b0: 57a7 06bc ec95 ee3c a767 8cbc 8b13 8c3d
000000c0: ca09 843c f3cb c1bb 5e22 373d d369 62ba
000000d0: 755d 77bc 08e4 a7bc 1b70 0a3c cdfc 21bd
000000e0: b3bb 373c bcac d53b 0b13 8e3c 9593 2c3d
000000f0: 9298 f63a fa69 8abb 7a93 0e3d acd9 f13c
00000100: 4901 6d3c 5ad6 2ebc f550 1e3c 4437 9f3b
00000110: 7579 563c b690 8eba 5448 c5bc 5a5c 4ebb
00000120: 84e7 7bbb 34f1 3dba 2c7a 713c 0864 0f3d
00000130: 84c3 2c3b 309a c53c 79ad 2b3d 9d2d eb3b
00000140: 6f54 f53c 6ceb efba cb1d ba3c cc45 863c
00000150: d018 70bc 6456 d33c 1a98 d8ba 1bd6 073d
00000160: 6467 a6bc 4fd7 a2bc 7c54 893c 6672 beba
00000170: 3352 08bd b104 d1bc 8d6c 39bc 8df0 293d
00000180: c37e ddba d3c2 3e3b 54a4 a03c 2aa9 64bb
00000190: 417f ad3c a971 683b d70d be3c deab a9bc
000001a0: efca e63b 96f5 223c 4e0a 193c c63b 2d3c
000001b0: f55a bdbc c348 3e3d a1c9 553d 1df0 173d
000001c0: 2248 10bd 425a 6e3c 3aef b0bb 5cb5 303b
000001d0: 1494 0fbc 5236 dabc bfd6 b6ba 858c 143d
000001e0: 281f 7839 349a 1c3c 9be9 353c 7a4e af3c
000001f0: a10e 8cbb 4759 623c 442c 603c 1b91 5f3c
00000200: c864 633c 65ec 3c3c 6506 3abc 1224 0dbd
00000210: 5fe9 593a c952 1abc 7b73 063b 36b6 403c
00000220: 5b0f 38bc 9dd1 da3b 2788 f1bb 587e 79bc
00000230: ae71 f63b fc7d 16bc 192d c9bb b1b0 bbbc
00000240: 9cc1 5c3c a4e5 8c3c 2f52 1fba 753c 2cbd
00000250: 186f bb3b 5f13 083c 19b3 0fbc 000c c03c
00000260: 49f7 3eba 6010 8f3c bc49 9dbc 24c4 e73c
00000270: 7fc3 aebc 9b76 86bc 904c fc3b 3098 cab9
00000280: 708c 883c 04ff c23a 8f40 7dbc 7695 a63b
00000290: f684 86bc fb0a 053c 4f3a d2bc 6a65 183c
000002a0: b31d 213c 8d04 c23c 05b8 2f3c a0ef ecbb
000002b0: ef41 433c b597 6b3a 4981 60bd df60 65bb
000002c0: fdad 7c3c fbc2 c83c 6e21 8ebc fef3 db3c
000002d0: fcc8 7fbb f63d 873c 8930 aabb e1c1 093d
000002e0: 0846 cbbb f4be 0a3d 735e f4bb b102 a5bb
000002f0: e656 6d37 8eec 24bc 6858 3eba 1d8a b73b
00000300: 9079 82bc fea2 b1bc 715e 203c d4ff 0bba
00000310: a266 b53b c2d9 f2bc 7b34 fc3a c198 c0bc
00000320: 4604 ab3c c803 0cbd 78d7 84bc 9ea8 45bd
00000330: db59 0d3c d0ac 49bc a91f b3bb 69a7 793c
00000340: 86f6 333c 135b b63c 20f4 c93c 1581 c7b9
00000350: 10f0 36bc 6345 8d3c 3b72 343c ef00 983c
00000360: ae1c a33c 7c00 87bc 85d9 82bb 8342 193c
00000370: b980 843b 835e 07bc 771c cfbb f40d ab39
00000380: 2350 5d3c 0a85 843c d369 b6bc 4f5a d4bc
00000390: 51e6 e8bc cea1 cfba f5ab c63b 210c 92bc
000003a0: 1d66 10bd dadf 173b 08d7 b9bc a8e8 063c
000003b0: fc62 35bd 241f 05bd c859 fabc a0f3 58bb
000003c0: fb21 8c3c 77c2 68bb f755 a43c b2e9 16b9
000003d0: eb22 a2bc 842b acbb dfcf 93bc 7015 3cbc
000003e0: 12d7 fbbb fcb7 563c dc95 733c d696 463c
000003f0: ae0f 13bb 5146 31bc f3d2 18bc d3b6 683b

action_model._continuous_distribution.mu.bias f4 [2]
-0.018109461 -0.015511848
00000000: 4b5a 94bc 6825 7ebc

action_model._discrete_distribution.branches.0.weight f4 [1, 128]
0.010806017 0.00461049 -0.0032211468 0.01837957 -0.0068486505 0.0040472616 -0.0033980652 -0.008199327
-0.0010332287 0.008651268 -0.006668771 0.021705238 0.001640208 -0.0071471888 -0.0039488897 -0.009988625
0.016208446 0.010680231 -0.0033663851 0.0025203612 -0.0071374984 0.0040146145 0.016383268 0.0096334815
-0.004556572 -0.008492428 0.013828828 -0.0051207426 0.011489599 0.006387836 0.011213126 -0.014685901
0.011575276 -0.0005601673 0.004359055 0.0014303456 0.0027974923 -8.987242e-05 0.0047259782 -0.0008369855
-0.006622077 -0.010677001 -0.024836024 0.013510323 -0.006177933 0.007080572 0.011953524 0.010892459
-0.009316263 0.0075936513 -0.0064115296 0.006408613 0.006600807 -0.008629356 0.0013702731 0.011551998
-0.004441813 -0.00014558533 0.009021095 -0.009019864 0.0024732077 -0.0032601785 0.012001036 0.014361421
0.0010328138 0.016268378 -0.0026873786 0.0004100998 -0.0048084706 0.017103223 -0.0002955165 -0.0019954154
0.00492547 -0.012163241 -0.013542115 0.00039836016 0.016453383 -0.0027231378 -0.0035967554 0.004631167
-0.0051974594 -0.016698794 0.0006945924 0.011592338 -0.0018478541 -0.00061549956 -0.0039911806 0.0049790456
0.010280478 -0.01059462 0.023677135 -0.0014940172 0.004659043 0.00068428484 -0.011694188 -0.0066242367
-0.008226968 -0.0003180004 0.0104166325 -0.014791967 -0.01031018 0.0029953395 0.010028376 -0.016872002
0.013880605 0.0024652646 0.01816859 0.008531136 0.008744019 0.0051237084 0.00033126402 -0.0041776146
-0.0035510135 -0.0025079323 -0.0018428791 -0.0137361875 0.0033541303 -0.0066038854 -6.9850896e-05 -0.0070552356
0.01328846 0.0065777325 0.00043921848 -0.021036431 0.015008993 0.0062497766 -0.009004502 0.004359652
00000000: b80b 313c 9813 973b e019 53bb c190 963c
00000010: a56a e0bb e49e 843b 13b2 5ebb 7856 06bc
00000020: 676d 87ba 0cbe 0d3c b585 dabb 2fcf b13c
00000030: 3ffc d63a f732 eabb b065 81bb 54a7 23bc
00000040: 93c7 843c 23fc 2e3c 929e 5cbb a52c 253b
00000050: ade1 e9bb 078d 833b 3436 863c c0d5 1d3c
00000060: 4c4f 95bb d323 0bbc 4f92 623c e7cb a7bb
00000070: df3e 3c3c 0d51 d13b 42b7 373c 229d 70bc
00000080: 3aa6 3d3c 31d8 12ba 67d6 8e3b 6f7a bb3a
00000090: 2256 373b e379 bcb8 61dc 9a3b 2569 5bba
000000a0: 02fe d8bb 97ee 2ebc eb74 cbbc 675a 5d3c
000000b0: 4270 cabb 2504 e83b b7d8 433c 4976 323c
000000c0: 3da3 18bc 2ad4 f83b cf17 d2bb 58ff d13b
000000d0: 954b d83b 2462 0dbc bc9a b33a 9744 3d3c
000000e0: a18c 91bb 44a8 18b9 37cd 133c 0dc8 13bc
000000f0: 8a15 223b b8a8 55bb fe9f 443c 2a4c 6b3c
00000100: 7b5f 873a 4345 853c bb1e 30bb aa02 d739
00000110: 6090 9dbb 0f1c 8c3c 8eef 9ab9 84c5 02bb
00000120: d665 a13b 5548 47bc bfdf 5dbc ffda d039
00000130: 3fc9 863c ac76 32bb 8bb7 6bbb 0bc1 973b
00000140: 734f aabb e9cb 88bc 4f15 363a caed 3d3c
00000150: b233 f2ba 7a59 21ba 73c8 82bb 4327 a33b
00000160: 736f 283c 0f95 2dbc 8df6 c13c e6d2 c3ba
00000170: e3aa 983b 9461 333a fb98 3fbc 2010 d9bb
00000180: 68ca 06bc 4bb9 a6b9 86aa 2a3c 025a 72bc
00000190: 07ec 28bc 754d 443b 0f4e 243c 2737 8abc
000001a0: 7a6b 633c 4790 213b 4bd6 943c 2ec6 0b3c
000001b0: 1343 0f3c c8e4 a73b 81ad ad39 5fe4 88bb
000001c0: 1fb8 68bb 1f5c 24bb c38c f1ba bf0d 61bc
000001d0: f8d0 5b3b 6865 d8bb ea7c 92b8 9b2f e7bb
000001e0: d7b7 593c 058a d73b e846 e639 9854 acbc
000001f0: 48e8 753c edca cc3b 9e87 13bc 69db 8e3b
